Files already downloaded and verified
Files already downloaded and verified
Epoch: 00 Train Loss: 2.164 Train Acc: 0.175 Eval Loss: 2.153 Eval Acc: 0.199
Epoch: 01 Train Loss: 2.125 Train Acc: 0.196 Eval Loss: 2.086 Eval Acc: 0.213
SNet(
  (conv1): Conv2d(3, 64, kernel_size=(7, 7), stride=(2, 2), padding=(3, 3))
  (pool1): MaxPool2d(kernel_size=3, stride=2, padding=1, dilation=1, ceil_mode=False)
  (conv2): Conv2d(64, 128, kernel_size=(1, 1), stride=(2, 2))
  (conv3): Conv2d(128, 256, kernel_size=(1, 1), stride=(2, 2))
  (conv4): Conv2d(256, 512, kernel_size=(1, 1), stride=(2, 2))
  (fc1): Linear(in_features=512, out_features=10, bias=True)
  (relu1): ReLU(inplace=True)
  (relu2): ReLU(inplace=True)
  (relu3): ReLU(inplace=True)
  (relu4): ReLU(inplace=True)
)
SNet(
  (conv1): ConvReLU2d(
    (0): Conv2d(3, 64, kernel_size=(7, 7), stride=(2, 2), padding=(3, 3))
    (1): ReLU(inplace=True)
  )
  (pool1): MaxPool2d(kernel_size=3, stride=2, padding=1, dilation=1, ceil_mode=False)
  (conv2): ConvReLU2d(
    (0): Conv2d(64, 128, kernel_size=(1, 1), stride=(2, 2))
    (1): ReLU(inplace=True)
  )
  (conv3): ConvReLU2d(
    (0): Conv2d(128, 256, kernel_size=(1, 1), stride=(2, 2))
    (1): ReLU(inplace=True)
  )
  (conv4): ConvReLU2d(
    (0): Conv2d(256, 512, kernel_size=(1, 1), stride=(2, 2))
    (1): ReLU(inplace=True)
  )
  (fc1): Linear(in_features=512, out_features=10, bias=True)
  (relu1): Identity()
  (relu2): Identity()
  (relu3): Identity()
  (relu4): Identity()
)
QConfig(activation=functools.partial(<class 'torch.ao.quantization.observer.HistogramObserver'>, reduce_range=True){}, weight=functools.partial(<class 'torch.ao.quantization.observer.PerChannelMinMaxObserver'>, dtype=torch.qint8, qscheme=torch.per_channel_symmetric){})
…
