Files already downloaded and verified
Files already downloaded and verified
Epoch: 00 Train Loss: 2.305 Train Acc: 0.100 Eval Loss: 2.306 Eval Acc: 0.100
Epoch: 01 Train Loss: 2.305 Train Acc: 0.098 Eval Loss: 2.304 Eval Acc: 0.100
CNet(
  (conv1): Conv2d(3, 6, kernel_size=(3, 3), stride=(1, 1))
  (pool1): MaxPool2d(kernel_size=2, stride=2, padding=0, dilation=1, ceil_mode=False)
  (conv3): Conv2d(6, 6, kernel_size=(3, 3), stride=(1, 1), padding=(1, 1))
  (conv4): Conv2d(6, 6, kernel_size=(3, 3), stride=(1, 1), padding=(1, 1))
  (conv5): Conv2d(6, 6, kernel_size=(3, 3), stride=(1, 1), padding=(1, 1))
  (conv6): Conv2d(6, 6, kernel_size=(3, 3), stride=(1, 1), padding=(1, 1))
  (conv7): Conv2d(6, 6, kernel_size=(3, 3), stride=(1, 1), padding=(1, 1))
  (conv8): Conv2d(6, 6, kernel_size=(3, 3), stride=(1, 1), padding=(1, 1))
  (conv9): Conv2d(6, 6, kernel_size=(3, 3), stride=(1, 1), padding=(1, 1))
  (conv10): Conv2d(6, 6, kernel_size=(3, 3), stride=(1, 1), padding=(1, 1))
  (conv11): Conv2d(6, 6, kernel_size=(3, 3), stride=(1, 1), padding=(1, 1))
  (conv12): Conv2d(6, 6, kernel_size=(3, 3), stride=(1, 1), padding=(1, 1))
  (conv2): Conv2d(6, 12, kernel_size=(3, 3), stride=(1, 1))
  (pool2): MaxPool2d(kernel_size=2, stride=2, padding=0, dilation=1, ceil_mode=False)
  (fc1): Linear(in_features=432, out_features=10, bias=True)
  (relu1): ReLU(inplace=True)
  (relu2): ReLU(inplace=True)
  (relu3): ReLU(inplace=True)
  (relu4): ReLU(inplace=True)
  (relu5): ReLU(inplace=True)
  (relu6): ReLU(inplace=True)
  (relu7): ReLU(inplace=True)
  (relu8): ReLU(inplace=True)
  (relu9): ReLU(inplace=True)
  (relu10): ReLU(inplace=True)
  (relu11): ReLU(inplace=True)
  (relu12): ReLU(inplace=True)
)
CNet(
  (conv1): ConvReLU2d(
    (0): Conv2d(3, 6, kernel_size=(3, 3), stride=(1, 1))
    (1): ReLU(inplace=True)
  )
  (pool1): MaxPool2d(kernel_size=2, stride=2, padding=0, dilation=1, ceil_mode=False)
  (conv3): ConvReLU2d(
    (0): Conv2d(6, 6, kernel_size=(3, 3), stride=(1, 1), padding=(1, 1))
    (1): ReLU(inplace=True)
  )
  (conv4): ConvReLU2d(
    (0): Conv2d(6, 6, kernel_size=(3, 3), stride=(1, 1), padding=(1, 1))
    (1): ReLU(inplace=True)
  )
  (conv5): ConvReLU2d(
    (0): Conv2d(6, 6, kernel_size=(3, 3), stride=(1, 1), padding=(1, 1))
    (1): ReLU(inplace=True)
  )
  (conv6): ConvReLU2d(
    (0): Conv2d(6, 6, kernel_size=(3, 3), stride=(1, 1), padding=(1, 1))
    (1): ReLU(inplace=True)
  )
  (conv7): ConvReLU2d(
    (0): Conv2d(6, 6, kernel_size=(3, 3), stride=(1, 1), padding=(1, 1))
    (1): ReLU(inplace=True)
  )
  (conv8): ConvReLU2d(
    (0): Conv2d(6, 6, kernel_size=(3, 3), stride=(1, 1), padding=(1, 1))
    (1): ReLU(inplace=True)
  )
  (conv9): ConvReLU2d(
    (0): Conv2d(6, 6, kernel_size=(3, 3), stride=(1, 1), padding=(1, 1))
    (1): ReLU(inplace=True)
  )
  (conv10): ConvReLU2d(
    (0): Conv2d(6, 6, kernel_size=(3, 3), stride=(1, 1), padding=(1, 1))
    (1): ReLU(inplace=True)
  )
  (conv11): ConvReLU2d(
    (0): Conv2d(6, 6, kernel_size=(3, 3), stride=(1, 1), padding=(1, 1))
    (1): ReLU(inplace=True)
  )
  (conv12): ConvReLU2d(
    (0): Conv2d(6, 6, kernel_size=(3, 3), stride=(1, 1), padding=(1, 1))
    (1): ReLU(inplace=True)
  )
  (conv2): ConvReLU2d(
    (0): Conv2d(6, 12, kernel_size=(3, 3), stride=(1, 1))
    (1): ReLU(inplace=True)
  )
  (pool2): MaxPool2d(kernel_size=2, stride=2, padding=0, dilation=1, ceil_mode=False)
  (fc1): Linear(in_features=432, out_features=10, bias=True)
  (relu1): Identity()
  (relu2): Identity()
  (relu3): Identity()
  (relu4): Identity()
  (relu5): Identity()
  (relu6): Identity()
  (relu7): Identity()
  (relu8): Identity()
  (relu9): Identity()
  (relu10): Identity()
  (relu11): Identity()
  (relu12): Identity()
)
QConfig(activation=functools.partial(<class 'torch.ao.quantization.observer.HistogramObserver'>, reduce_range=True){}, weight=functools.partial(<class 'torch.ao.quantization.observer.PerChannelMinMaxObserver'>, dtype=torch.qint8, qscheme=torch.per_channel_symmetric){})
…
